…
[2021-01-27 07:45:44,960][Demo_PU.py][INFO] Epoch:[970/1000]	 test=39793\41917 OA=0.9493284 AA=0.9281991 kappa=0.9325332 AC=[[0.95257891 0.98654782 0.74090247 0.93666667 0.99923722 0.89860069
 0.91083782 0.93914976 0.98927039]]
[2021-01-27 08:08:01,305][Demo_PU.py][INFO] Epoch:[980/1000]	 test=39873\41917 OA=0.9512370 AA=0.9302888 kappa=0.9350711 AC=[[0.95719784 0.98736808 0.74332848 0.93866667 0.99923722 0.90123707
 0.91468101 0.94053904 0.99034335]]
[2021-01-27 08:30:20,450][Demo_PU.py][INFO] Epoch:[990/1000]	 test=39948\41917 OA=0.9530262 AA=0.9318639 kappa=0.9374443 AC=[[0.96073903 0.98868048 0.74332848 0.94133333 1.         0.90387345
 0.91468101 0.94165046 0.99248927]]
[2021-01-27 08:48:59,689][Demo_PU.py][INFO] model SSCDNonLModel_ngcn_1(
  (b1): BatchNorm2d(103, eps=1e-05, momentum=0.1, affine=True, track_running_stats=True)
  (con1): Conv2d(103, 200, kernel_size=(1, 1), stride=(1, 1))
  (s1): Sigmoid()
  (cond1): Conv2d(200, 200, kernel_size=(5, 5), stride=(1, 1), padding=(2, 2), groups=200)
  (sd1): Sigmoid()
  (b2): BatchNorm2d(303, eps=1e-05, momentum=0.1, affine=True, track_running_stats=True)
  (con2): Conv2d(303, 200, kernel_size=(1, 1), stride=(1, 1))
  (s2): Sigmoid()
  (cond2): Conv2d(200, 25, kernel_size=(5, 5), stride=(1, 1), padding=(2, 2), groups=25)
  (sd2): Sigmoid()
  (b4): BatchNorm2d(25, eps=1e-05, momentum=0.1, affine=True, track_running_stats=True)
  (trans): Conv2d(25, 1, kernel_size=(1, 1), stride=(1, 1))
  (att_map): Self_Attn(
    (query_conv): Conv2d(25, 3, kernel_size=(1, 1), stride=(1, 1))
    (key_conv): Conv2d(25, 3, kernel_size=(1, 1), stride=(1, 1))
    (softmax): Softmax(dim=-1)
  )
  (conv1): GCNConv(1, 25)
  (bcat): BatchNorm2d(50, eps=1e-05, momentum=0.1, affine=True, track_running_stats=True)
  (con4): Conv2d(50, 200, kernel_size=(1, 1), stride=(1, 1))
  (s4): Sigmoid()
  (cond4): Conv2d(200, 200, kernel_size=(5, 5), stride=(1, 1), padding=(2, 2), groups=200)
  (sd4): Sigmoid()
  (b5): BatchNorm2d(225, eps=1e-05, momentum=0.1, affine=True, track_running_stats=True)
  (con5): Conv2d(225, 200, kernel_size=(1, 1), stride=(1, 1))
  (s5): Sigmoid()
  (cond5): Conv2d(200, 200, kernel_size=(5, 5), stride=(1, 1), padding=(2, 2), groups=200)
  (sd5): Sigmoid()
  (con6): Conv2d(225, 10, kernel_size=(1, 1), stride=(1, 1))
)  best_acc 0.9791493 threshold=0.001 



[2021-01-27 08:48:59,698][Demo_PU.py][INFO] NUM:[1/10]	 lr=0.0006,weight+decay=2e-05 


[2021-01-27 08:53:26,109][Demo_PU.py][INFO] Epoch:[0/1000]	 test=23827\41917 OA=0.5684329 AA=0.2059069 kappa=0.3304999 AC=[[0.85327175 0.99989063 0.         0.         0.         0.
 0.         0.         0.        ]]
[2021-01-27 09:17:55,422][Demo_PU.py][INFO] Epoch:[10/1000]	 test=24772\41917 OA=0.5909774 AA=0.2220512 kappa=0.3838963 AC=[[0.99846035 1.         0.         0.         0.         0.
…
