…
[2021-01-28 16:16:31,042][Demo_KSC.py][INFO] Epoch:[900/1000]	 test=4771\4891 OA=0.9754651 AA=0.9623548 kappa=0.9726797 AC=[[0.9916318  0.9650655  0.98340249 0.72995781 0.94       0.9953271
 0.95918367 0.98267327 1.         0.99734043 1.         0.96602972
 1.        ]]
[2021-01-28 20:02:46,480][Demo_KSC.py][INFO] Epoch:[950/1000]	 test=4773\4891 OA=0.9758741 AA=0.9633804 kappa=0.9731346 AC=[[0.9916318  0.9650655  0.98340249 0.72995781 0.95333333 0.9953271
 0.95918367 0.98267327 1.         0.99734043 1.         0.96602972
 1.        ]]
[2021-01-28 23:40:06,585][Demo_KSC.py][INFO] model SSCDNonLModel_ngcn_1(
  (b1): BatchNorm2d(176, eps=1e-05, momentum=0.1, affine=True, track_running_stats=True)
  (con1): Conv2d(176, 200, kernel_size=(1, 1), stride=(1, 1))
  (s1): Sigmoid()
  (cond1): Conv2d(200, 200, kernel_size=(5, 5), stride=(1, 1), padding=(2, 2), groups=200)
  (sd1): Sigmoid()
  (b2): BatchNorm2d(376, eps=1e-05, momentum=0.1, affine=True, track_running_stats=True)
  (con2): Conv2d(376, 200, kernel_size=(1, 1), stride=(1, 1))
  (s2): Sigmoid()
  (cond2): Conv2d(200, 25, kernel_size=(5, 5), stride=(1, 1), padding=(2, 2), groups=25)
  (sd2): Sigmoid()
  (b4): BatchNorm2d(25, eps=1e-05, momentum=0.1, affine=True, track_running_stats=True)
  (trans): Conv2d(25, 1, kernel_size=(1, 1), stride=(1, 1))
  (att_map): Self_Attn(
    (query_conv): Conv2d(25, 3, kernel_size=(1, 1), stride=(1, 1))
    (key_conv): Conv2d(25, 3, kernel_size=(1, 1), stride=(1, 1))
    (softmax): Softmax(dim=-1)
  )
  (conv1): GCNConv(1, 25)
  (bcat): BatchNorm2d(50, eps=1e-05, momentum=0.1, affine=True, track_running_stats=True)
  (con4): Conv2d(50, 200, kernel_size=(1, 1), stride=(1, 1))
  (s4): Sigmoid()
  (cond4): Conv2d(200, 200, kernel_size=(5, 5), stride=(1, 1), padding=(2, 2), groups=200)
  (sd4): Sigmoid()
  (b5): BatchNorm2d(225, eps=1e-05, momentum=0.1, affine=True, track_running_stats=True)
  (con5): Conv2d(225, 200, kernel_size=(1, 1), stride=(1, 1))
  (s5): Sigmoid()
  (cond5): Conv2d(200, 200, kernel_size=(5, 5), stride=(1, 1), padding=(2, 2), groups=200)
  (sd5): Sigmoid()
  (con6): Conv2d(225, 14, kernel_size=(1, 1), stride=(1, 1))
)  best_acc 0.9758741 threshold=0.001 



[2021-01-28 23:40:36,943][Demo_KSC.py][INFO] NUM:[1/5]	 lr=0.0005,weight+decay=2e-05 


[2021-01-28 23:49:27,346][Demo_KSC.py][INFO] Epoch:[0/1000]	 test=471\4891 OA=0.0962993 AA=0.0769231 kappa=0.0000000 AC=[[0. 0. 0. 0. 0. 0. 0. 0. 0. 0. 0. 1. 0.]]
[2021-01-29 03:33:47,560][Demo_KSC.py][INFO] Epoch:[50/1000]	 test=2164\4891 OA=0.4424453 AA=0.2661246 kappa=0.3506711 AC=[[0.9930265  0.         0.         0.         0.         0.
…
